utils/n_ode_model.pth (torch, 2992 bytes, 4 tensors)

fc1.weight f4 [32, 4]
00000000: 2619 25bd e355 dabe 00fc 493e 1bc3 d53e
00000010: 332b 55be 0156 96bd 42a9 e5be a6cd a2be
00000020: eb3e 623e 8a1f 9c3e aff5 ab3e 1675 4fbd
00000030: c02b 6bbe 8a94 8fbe 899b 283f 7d8e 0f3f
00000040: 626e a33e a2c4 debe 7eb6 3cbe ebe6 133e
00000050: 334f 073f f2dd 063f 9bfe 893e a143 a5bd
00000060: d201 da3d 4c3c 1c3f 4da9 ed3d a7db f13e
00000070: 9ad5 5abe f099 ed3e e5f5 0e3e 83ea b53e
00000080: d87f 15be 2cce 5abc b086 143f a9b3 a9be
00000090: b022 8b3e 9ab0 0fbf 715e f3bc 7ee4 06be
000000a0: 07ab 1dbe 4b29 a6be c2d6 c63d 6b6f 69be
000000b0: 0ee7 d9bd 04d4 563f 1b54 e33e 305c d83d
000000c0: e30a 073e c319 683d 3a77 893e a0a5 f7be
000000d0: ca5e fdbd ba50 bfbe 6d9b 42be fc54 dcb8
000000e0: 4815 b2be 1626 e73e 5d53 62be 0ea0 7d3e
000000f0: f667 42be 9498 603e b223 d6be 922c eb3e
00000100: 36cb ed3e 1d39 33be 326f 7e3d 3d8c 733d
00000110: 688b c23d eac2 2a3f 0728 a63e 84d0 4e3e
00000120: 443a bdbe e3b0 a83e ba4f 643f c4ed 653d
00000130: 2671 c0bd 3543 13be c237 7abe 7602 f9be
00000140: a60b ef3c adbe a5be da66 93be 6d50 173f
00000150: 2090 953e 998c dcbe a2bf f7bd fadb ebbd
00000160: 0210 52bd 9662 043e 44c1 963e 7ff8 dabe
00000170: f9bb 563d a496 c33e 8cb0 1f3f 4268 463f
00000180: 2f34 003f 5a01 49bd a457 523e 2f53 d33e
00000190: dd52 06bf 632a aabe 3166 37be 149e 993d
000001a0: 0e9a e73e ccfe cbbe d37c 503e 7f0d a73c
000001b0: 7b49 be3e c4e7 1e3c 61eb e83d fe44 08bf
000001c0: fe79 b5bd 61f6 9d3d d226 babe 6fb3 b83b
000001d0: 1544 03be c5b3 1fbe afd6 ad3d 69ee 013e
000001e0: 11c5 be3e 6f2c 8bbe 541e 51be daaa 97bd
000001f0: 6433 c8bd abff 333d b26e 55bf 6ae5 f1bd
-0.040307187 -0.4264365 0.19725037 0.41750416 -0.2081726 -0.07340623 -0.44855696 -0.31797522
0.22094314 0.30492812 0.3358588 -0.05064877 -0.22965908 -0.28043014 0.6586233 0.56076795
0.31920153 -0.43509394 -0.1842899 0.14443557 0.52855223 0.5268241 0.2695206 -0.0806954
0.106448784 0.61029506 0.11604557 0.47237894 -0.21370545 0.46406507 0.13960989 0.3553048
-0.1459955 -0.013354819 0.58018017 -0.33144882 0.27174902 -0.5612885 -0.02970812 -0.131731
-0.15397273 -0.3245338 0.097089306 -0.22796409 -0.10639773 0.8391726 0.44400105 0.10564458
0.13187747 0.056665193 0.26848775 -0.4836855 -0.12371595 -0.37366277 -0.19004603 -0.00010506247
-0.3478186 0.45146245 -0.22102113 0.24768087 -0.1898497 0.21933204 -0.41824108 0.45932442
0.464441 -0.17502256 0.062117763 0.059459914 0.09499246 0.66703665 0.32452413 0.2019673
-0.36958516 0.32947454 0.89184153 0.056134954 -0.09396581 -0.14381106 -0.24435332 -0.4863469
0.02918036 -0.32372037 -0.28789407 0.59107095 0.2921152 -0.43076017 -0.12097098 -0.115165666
-0.051284797 0.12928233 0.29444325 -0.42767712 0.05242536 0.38200867 0.62378764 0.77502835
0.50079626 -0.049073555 0.20541245 0.41274402 -0.5247019 -0.33235464 -0.17910077 0.07500854
0.45234722 -0.39842832 0.20360117 0.020392178 0.37165436 0.009698812 0.1137302 -0.53230274
-0.08861159 0.07713009 -0.36357743 0.0056366245 -0.1281894 -0.1559592 0.08488213 0.12688603
0.37259725 -0.27182338 -0.20421726 -0.07405634 -0.09775427 0.043944996 -0.8337203 -0.118113354

fc1.bias f4 [32]
00000000: 1c5b e5be 68d0 0abe 08d6 f93b 5c35 09be
00000010: d9d8 093f 8251 55be 81a5 95be b7ae 8f3e
00000020: f63d 9abe eaca 17bf 3451 d83e 870a f43d
00000030: 303d 25bf 541f f43d 4b12 34be dd91 a43e
00000040: 19d4 d13e 613a 21bf 343b 9dbe 551b 0abf
00000050: 82f7 e6be 8e78 19bf 0797 d03e 33a7 56be
00000060: 2ff9 d93e ba29 b3bc 91ab 44bd 3e70 babd
00000070: 0ebd e33e 8219 ec3e 8688 fa3e eb49 223e
-0.44796073 -0.13556063 0.0076243915 -0.13399261 0.5384651 -0.20831874 -0.29227832 0.28062984
-0.30125397 -0.59294 0.42249453 0.119160704 -0.6454649 0.11920038 -0.17585103 0.32142535
0.4098213 -0.62979704 -0.3070923 -0.53947955 -0.45110708 -0.59949577 0.40740225 -0.20962219
0.42572924 -0.021870483 -0.04801518 -0.0910344 0.44480175 0.4611321 0.48932284 0.1584851

fc2.weight f4 [2, 32]
00000000: e713 323e 85ae 1b3e aa6d 1dbd 3f90 1c3e
00000010: d2b9 183e 77b3 36bd 9116 573c a90d 8b3e
00000020: fd3b 01bd 2cb2 6f3e faaf 903c 74ec 8b3c
00000030: d572 2fbd d03f cdbc 396c 85bd 9211 513d
00000040: 4e67 0c3d 4900 733c 9912 02bc c6fd 813d
00000050: fc62 e83c 31de 25bf a77f 4d3e 7328 ab3d
00000060: ef3b 823c 9599 80bd 05fd c13d 4e82 de3d
00000070: 1d6b 6d3e 9f0c 3d3e ef83 153e d84d 0f3e
00000080: b3e2 07bf cf67 98bc 04c1 b33e d212 623e
00000090: 82cb 6b3d 261d 9c3e 1ce2 ac3e a136 713e
000000a0: c670 fbbe dfb0 a13e 6888 1c3e 5cd4 a83e
000000b0: 9eae d53e 582c d13d 228d 1f3d 0ad1 3fbe
000000c0: edbf 48be 761a 0cbf b451 f23e bc0c 803d
000000d0: 9cb3 c33e 5763 eb3e 7ff2 02be baac a9be
000000e0: 3d76 22be 5856 4f3e 6031 ab3d 23c7 b4bd
000000f0: e29a fa3b 3915 24be adde cdbd c26c 4c3e
0.17390405 0.15203293 -0.038434662 0.152894 0.14914635 -0.044604745 0.013127939 0.2715886
-0.03155135 0.23407811 0.017662037 0.017080523 -0.04283412 -0.025054842 -0.065147825 0.051042147
0.034278207 0.014831611 -0.007939004 0.063472316 0.028367512 -0.6479216 0.20068227 0.083573245
0.01589772 -0.062792934 0.09472088 0.108646974 0.23185392 0.18461846 0.1460111 0.13994539
-0.5308029 -0.018604187 0.35108197 0.22077492 0.057567127 0.30490988 0.33766258 0.23555996
-0.49109477 0.31580254 0.1528641 0.32974517 0.41734785 0.10213536 0.038952954 -0.18732086
-0.19604464 -0.54727876 0.4732796 0.06252429 0.3822297 0.45974228 -0.12787817 -0.33139592
-0.15865417 0.20247781 0.08359027 -0.08827045 0.007647858 -0.16023721 -0.10052238 0.19963363

fc2.bias f4 [2]
00000000: 2c20 723e d199 1cbe
0.23645085 -0.15293051
