utils/n_ode_model_sim.pth (torch, 2992 bytes, 4 tensors)

fc1.weight f4 [32, 4]
-0.06973448 0.5192698 -0.2785643 0.23636632 -0.14327887 -0.38146737 -0.49429378 -0.5058123
0.063806705 -0.3756887 -0.28311157 0.8485827 0.06975819 -0.12739971 0.45067737 -0.27097422
-0.4351212 0.049189914 -0.29768342 0.002445201 -0.17350316 -0.27202356 -0.36189958 0.19163436
0.5941361 0.21716557 -0.0146841975 0.04476746 -0.31697562 0.35835567 -0.120284185 -0.048873812
0.15608823 -0.06580361 -0.67794734 -0.44369808 -0.5169711 -0.24096894 0.0058514304 -0.1866601
-0.27533528 0.07476832 0.0081086205 -0.0064607374 -0.5703367 -0.14755072 0.075019926 0.05719081
-0.36166355 -0.10168535 0.1879977 -0.08603587 -0.13044275 -0.044530556 0.468532 -0.056427952
0.5330416 0.28971404 0.10125126 0.42655224 -0.19284728 -0.21467857 0.060848538 0.32367265
-0.30488047 0.31399575 -0.1238121 0.519203 -0.21361396 0.34808484 -0.13174239 0.33355036
0.17267822 -0.009215673 0.74335134 -0.2517658 -0.0051300526 0.06781894 0.32805598 -0.0032269955
0.07997672 -0.47925934 0.5198854 -0.27557805 0.37868258 0.09586899 0.5080958 -0.13531423
0.5229724 -0.08814542 0.25001153 -0.40625235 0.14509663 -0.23976304 0.11353549 -0.13144408
0.043379184 -0.6395074 0.3305229 -0.050190262 0.6493172 0.11890855 -0.084841296 -0.32670218
0.18418932 -0.33820555 0.27373385 -0.67330927 0.35428402 -0.013977689 0.27195048 0.04068236
0.08482869 -0.2276731 0.40513286 0.5493268 0.32584068 0.40606835 -0.28490987 -0.12922654
-0.3144133 -0.17204846 0.9024848 -0.39459002 0.09461901 -0.5882527 -0.60504454 0.44474763
00000000: f3d0 8ebd deee 043f fb9f 8ebe 030a 723e
00000010: b2b7 12be b14f c3be 1314 fdbe ea7c 01bf
00000020: 17ad 823d 455a c0be 00f4 90be b73c 593f
00000030: 62dd 8e3d 1275 02be 2fbf e63e 22bd 8abe
00000040: 35c8 debe 5d7b 493d f669 98be aa3f 203b
00000050: d0aa 31be ac46 8bbe e74a b9be cc3b 443e
00000060: 4e19 183f a760 5e3e fd95 70bc 165e 373d
00000070: a14a a2be 657a b73e 8e57 f6bd e82f 48bd
00000080: 98d5 1f3e 0bc4 86bd f58d 2dbf 652c e3be
00000090: 3858 04bf 90c0 76be 5bbd bf3b d323 3fbe
000000a0: bff8 8cbe 2220 993d 05da 043c 98b4 d3bb
000000b0: 9601 12bf 8917 17be 0ca4 993d e940 6a3d
000000c0: f72b b9be 6940 d0bd 7882 403e 9333 b0bd
000000d0: c992 05be ac65 36bd 6de3 ef3e ff20 67bd
000000e0: 6a75 083f 6655 943e d25c cf3d 0e65 da3e
000000f0: c279 45be b3d4 5bbe 513c 793d 6cb8 a53e
00000100: 4b19 9cbe 0dc4 a03e 3391 fdbd 7dea 043f
00000110: 9ebd 5abe 2d38 b23e 7ae7 06be 1dc7 aa3e
00000120: 8fd2 303e 56fd 16bc 464c 3e3f 72e7 80be
00000130: 001a a8bb a8e4 8a3d f4f6 a73e 007c 53bb
00000140: d6ca a33d 7b61 f5be 3617 053f 9118 8dbe
00000150: afe2 c13e f656 c43d 9112 023f d08f 0abe
00000160: 85e1 053f 9685 b4bd 8301 803e 4f00 d0be
00000170: 3694 143e 7184 75be 4c85 e83d 4799 06be
00000180: 5fae 313d c2b6 23bf 4c3a a93e 4e94 4dbd
00000190: a739 263f 5386 f33d 46c1 adbd 8245 a7be
000001a0: 209c 3c3e 4729 adbe d826 8c3e ff5d 2cbf
000001b0: b764 b53e ad02 65bc 183d 8b3e 8ca2 263d
000001c0: aaba ad3d 2323 69be 936d cf3e aea0 0c3f
000001d0: 97d4 a63e 31e8 cf3e b5df 91be f653 04be
000001e0: c8fa a0be 792d 30be 3e09 673f b407 cabe
000001f0: 9dc7 c13d bb97 16bf 33e4 1abf f6b5 e33e

fc1.bias f4 [32]
-0.169266 0.21669996 0.14150803 -0.069451705 -0.70391285 0.2980184 0.5349579 0.61847186
-0.20062412 -0.36356184 0.79856664 -0.6719025 -0.17459965 -0.23384406 0.4036558 0.3604075
-0.8000328 0.7151706 -0.29893038 -0.16378427 -0.27121025 -0.1716722 -0.38778523 -0.6286458
-0.40319115 -0.108347125 0.19097717 -0.26428154 0.0792877 0.3591123 -0.36915115 -0.28394917
00000000: 1154 2dbe 98e6 5d3e 7be7 103e b23c 8ebd
00000010: a233 34bf de95 983e 00f3 083f 2c54 1e3f
00000020: 6970 4dbe c724 babe dd6e 4c3f cd01 2cbf
00000030: 40ca 32be d174 6fbe f9ab ce3e 5587 b83e
00000040: f3ce 4cbf 6c15 373f 670d 99be 10b7 27be
00000050: 12dc 8abe d6ca 2fbe c98b c6be eeee 20bf
00000060: 126f cebe 19e5 ddbd 858f 433e e94f 87be
00000070: 9761 a23d 91dd b73e 6101 bdbe c961 91be

fc2.weight f4 [2, 32]
-0.15179947 0.025586626 0.10003486 0.14480421 0.053885855 0.014160496 0.19069459 0.07244628
0.2556419 0.039351985 0.22355646 -0.15726355 -0.16146208 -0.016871378 0.020746695 0.152393
-0.06397807 0.18625905 -0.15874326 0.012951305 0.09467303 0.022826986 -0.027211793 -0.32919264
-0.10226603 -0.13959487 0.2318225 0.11108821 0.07794399 0.034630943 0.025548598 -0.08002541
0.39773545 -0.24083063 -0.32847303 0.08640881 0.41645288 -0.018861914 0.23235625 -0.14879736
0.14758892 0.142708 -0.05020633 0.28987205 0.1251598 -0.10879329 0.32693455 0.018865237
0.15091345 -0.03902407 0.29641426 0.16107734 0.18608563 -0.19216605 -0.19629985 0.25586498
0.34463835 0.20345372 0.17186959 -0.05006678 -0.077488035 -0.29677287 -0.3874532 -0.26796362
00000000: 5271 1bbe 0b9b d13c 14df cc3d 8e47 143e
00000010: 6ab7 5c3d 6d01 683c 7145 433e b75e 943d
00000020: 7fe3 823e 8c2f 213d fceb 643e b209 21be
00000030: 5156 25be d835 8abc f9f4 a93c e90c 1c3e
00000040: ef06 83bd b1ba 3e3e 988d 22be b631 543c
00000050: efe3 c13d a9ff ba3c 44eb debc f08b a8be
00000060: da70 d1bd f5f1 0ebe e162 6d3e 3782 e33d
00000070: 19a1 9f3d 2dd9 0d3d 4b4b d13c 5de4 a3bd
00000080: fba3 cb3e 4e9c 76be 9e2d a8be 1af7 b03d
00000090: 5039 d53e 4d84 9abc ccee 6d3e 565e 18be
000000a0: 8d21 173e 0c22 123e 27a5 4dbd 1c6a 943e
000000b0: e429 003e 04cf debd f763 a73e 458b 9a3c
000000c0: 0e89 1a3e b4d7 1fbd 9cc3 973e 75f1 243e
000000d0: 3b8d 3e3e 2dc7 44be d402 49be bc00 833e
000000e0: 7074 b03e 2c56 503e 95fe 2f3e d312 4dbd
000000f0: 0cb2 9ebd 9df2 97be 4460 c6be 8732 89be

fc2.bias f4 [2]
0.2889167 -0.2981062
00000000: e4ec 933e 60a1 98be
