utils/n_ode_model.pth (torch, 2992 bytes, 4 tensors)

fc1.weight f4 [32, 4]
0	0xbdaca7fa	-0.084304765
1	0xbeee57b9	-0.46551302
2	0x3c9fd87e	0.019512411
3	0x3d39a4e9	0.045323286
4	0x3ebebd39	0.3725374
5	0xbe8408c4	-0.25787938
6	0x3e885d71	0.2663379
7	0x3f31ebd5	0.69500476
8	0xbe47949b	-0.19490282
9	0x3eec6665	0.4617187
10	0x3ec1b45f	0.37832925
11	0xbfb085ea	-1.3790867
12	0x3ed4b821	0.4154673
13	0xbefadd63	-0.4899703
14	0x3c79457c	0.01521432
15	0x3fd37366	1.6519592
16	0x3ecc3739	0.39885882
17	0x3ec35658	0.38151813
18	0xbe5d882f	-0.21633981
19	0x3f8ae7b1	1.0851957
20	0xbf340393	-0.70317954
21	0x3ef70b79	0.4825094
22	0x3e6d1652	0.23153046
23	0x3f2c4d0a	0.6730505
24	0xbdfcbe52	-0.12340988
25	0x3f1c63db	0.6108987
26	0x3eacd69b	0.3375748
27	0xbfa6b838	-1.3024969
28	0x3ed13f1f	0.4086847
29	0xbe08f46b	-0.13374488
30	0x3ead9ab8	0.33907104
31	0xbf9b2814	-1.2121606
32	0xbef1b600	-0.47209167
33	0xbedfbd5d	-0.4369916
34	0x3edfa6ac	0.43681848
35	0x3f786ba8	0.9703927
36	0x3ee70b9d	0.45126048
37	0xbdd9a770	-0.10627639
38	0x3d2d137d	0.042254914
39	0x3e5e1725	0.21688516
40	0xbd6d8954	-0.057992294
41	0x3ee4df5e	0.44701666
42	0x3f05fcfc	0.5233915
43	0x3f1f5efe	0.6225432
44	0xbe8fff47	-0.2812445
45	0x3ddae8fe	0.10688971
46	0x3e62e060	0.22155905
47	0x3eb797ff	0.3585815
48	0xbe8af518	-0.27140117
49	0xbf0824e4	-0.5318129
50	0xbd3f454e	-0.046696953
51	0xbf1bdd1c	-0.6088426
52	0x3c6cf048	0.014461584
53	0xbf0084e0	-0.5020275
54	0x3e097a03	0.1342545
55	0xbefe8a6a	-0.49714977
56	0x3e33c004	0.17553717
57	0x3f127840	0.57214737
58	0xbdd14c60	-0.102196455
59	0xc02ea120	-2.7285843
60	0x3edc8252	0.43068177
61	0x3e638d79	0.22221936
62	0x3e0bc93a	0.1365098
63	0xc001c8a2	-2.0278707
64	0xbf697d98	-0.91207266
65	0x3ecfe499	0.40604094
66	0xbe348f3e	-0.17632768
67	0x3e0c0a3a	0.13675776
68	0xbc816dc2	-0.015799407
69	0xbf112e9f	-0.56711763
70	0xbe9608b0	-0.29303503
71	0xbf5ce1cd	-0.86282045
72	0xbc05fd28	-0.008178033
73	0xbc9c5bd7	-0.019086761
74	0x3e8884e5	0.2666389
75	0x3e0f9703	0.1402245
76	0x3e319fb8	0.17346084
77	0xbdd9eeba	-0.106412366
78	0x3e65900a	0.22418228
79	0xbfc60786	-1.5471046
80	0xbf0f7790	-0.5604181
81	0x3de78715	0.11305062
82	0x3ec1d199	0.37855223
83	0x3f90cbb4	1.1312165
84	0x3e6ab68a	0.22921196
85	0xbf24c377	-0.64360756
86	0x3ec3c08a	0.38232833
87	0x3f2119e3	0.62930125
88	0xba14f34c	-0.0005682006
89	0xbdf67c28	-0.120354
90	0x3e8e0d04	0.27744305
91	0x3f872043	1.055672
92	0x3e9f43bd	0.31106368
93	0x3e2a2ed6	0.16619429
94	0x3e43fde3	0.19139819
95	0xc042c6e0	-3.0433884
96	0xbe635d6c	-0.22203606
97	0x3f0a2240	0.5395851
98	0x3eb08d18	0.34482646
99	0xbfbddc9e	-1.4832952
100	0xbdbbf8e8	-0.091783345
101	0x3dae0eb1	0.08498896
102	0x3ee0e5be	0.4392528
103	0xbe8b34f0	-0.27188826
104	0xbee2a314	-0.44265044
105	0x3e147ed3	0.14501505
106	0xbefb4c00	-0.4908142
107	0x3f6b9087	0.92017406
108	0xbefed532	-0.4977203
109	0x3f0d40be	0.55176914
110	0x3dad6fe0	0.08468604
111	0xc059469a	-3.3949342
112	0x3d6ca822	0.05777753
113	0xbe9ed9ba	-0.31025487
114	0x3ec36941	0.3816624
115	0x3f9727cd	1.1809021
116	0xbde598bf	-0.11210775
117	0x3e9996d7	0.29997894
118	0x3ef7fe1b	0.48436055
119	0xbf20913b	-0.62721604
120	0xbdbee6e2	-0.09321381
121	0xbf0d5912	-0.55214036
122	0x3d885862	0.06657483
123	0x3f0e7366	0.55644834
124	0x3d82a1a8	0.0637849
125	0xbe4065b1	-0.18788792
126	0x3e8b0acc	0.27156675
127	0xbe876bdd	-0.2644948

fc1.bias f4 [32]
0	0x3e3c97e8	0.18417323
1	0xbf094b9a	-0.53630984
2	0x3d09e519	0.03366575
3	0xbe0e95c6	-0.13924322
4	0xbf1eff34	-0.6210816
5	0xbecead7d	-0.40366736
6	0xbe655c29	-0.22398438
7	0x3ee2bb34	0.4428345
8	0xbecc4bc9	-0.3990157
9	0x3ea097b7	0.3136575
10	0x3ead7d98	0.33884883
11	0x3f2525e5	0.6451095
12	0xba7ac844	-0.0009566585
13	0x3d19021b	0.037355524
14	0xbe9c3966	-0.30512542
15	0xbf11dbc8	-0.56975985
16	0xbf08aeaa	-0.53391516
17	0x3e259a45	0.1617213
18	0xbeb8da96	-0.36104268
19	0x3dc7106c	0.09719929
20	0xbefd74b3	-0.49503097
21	0xbcb2bdf7	-0.021819098
22	0x3ea2eeac	0.31822717
23	0xbf01ca14	-0.5069897
24	0x3e006654	0.12539035
25	0xbdc0168e	-0.09379302
26	0x3ed25b6c	0.41085374
27	0x3daf8114	0.085695416
28	0x3eb0eae1	0.34554198
29	0xbe97b38a	-0.29629165
30	0x3e0c91a8	0.13727438
31	0x3e078313	0.13233595

fc2.weight f4 [2, 32]
0	0x3c82045f	0.015871225
1	0xbdbe173e	-0.09281777
2	0x3d9b30af	0.07577645
3	0xbdcb65d3	-0.09931531
4	0x3d9a4de4	0.07534388
5	0x3e1353f2	0.14387491
6	0xbda63219	-0.08115024
7	0x3e0a74e6	0.13521156
8	0x3dd14497	0.102181606
9	0x3e664968	0.2248894
10	0x3e22e8a8	0.15909064
11	0x3e63c8cd	0.22244568
12	0xbd6621bd	-0.05618452
13	0x3dcf34cd	0.10117493
14	0xbda35df4	-0.079769045
15	0xbd85ffc3	-0.06542923
16	0xbe0aeebf	-0.13567637
17	0x3d5f131a	0.054461576
18	0xbd7071ee	-0.0587024
19	0x3d23a140	0.0399487
20	0xbdccd7e2	-0.10002114
21	0xbc3196b9	-0.010839158
22	0x3da57ef1	0.08080853
23	0xbd458950	-0.048226655
24	0xbc97984f	-0.018505244
25	0x3d4f570b	0.05062012
26	0xbdac99e4	-0.0842779
27	0x3e3e83bf	0.18604945
28	0x3d2c73b4	0.04210253
29	0xbd86d8e3	-0.065843366
30	0xbc1e1f4b	-0.0096510155
31	0x3e32bee5	0.17455633
32	0x3e3fbee4	0.18725163
33	0x3e3d9d01	0.18516923
34	0x3e0ace23	0.13555197
35	0x3e406a74	0.18790609
36	0xbf0f7ce7	-0.5604996
37	0x3f05049f	0.51960176
38	0x3e5ad515	0.21370347
39	0x3d56737c	0.05235623
40	0x3eb322e4	0.34987557
41	0xbcea9558	-0.028635666
42	0xbe123306	-0.14277276
43	0xbe23df53	-0.1600316
44	0xbe91421d	-0.28370753
45	0x3e1cacfb	0.15300362
46	0x3e8c80e6	0.27442092
47	0x3e3dda7e	0.1854038
48	0xbf6354eb	-0.8880145
49	0x3e6e83ab	0.23292415
50	0xbad1f1bc	-0.0016017477
51	0x3db3aec6	0.0877357
52	0x3e951cb4	0.2912346
53	0xbebb2722	-0.36553293
54	0xbd8ea63f	-0.06965303
55	0x3ee4780a	0.44622833
56	0x3e3a1a33	0.18174057
57	0xbd10b429	-0.035328064
58	0x3dfc76aa	0.12327321
59	0x3dfee1e3	0.12445428
60	0xbdda765b	-0.10667106
61	0x3d13047f	0.03589296
62	0x3e21981f	0.15780686
63	0xbc5f1229	-0.01361517

fc2.bias f4 [2]
0	0x3e746a78	0.2386874
1	0xbe12410c	-0.14282626
