utils/n_ode_model.pth (torch, 2992 bytes, 4 tensors)

fc1.weight f4 [32, 4]
0	0xbdcc06ed	-0.099622585
1	0x3e49794b	0.19675176
2	0x3eb79c47	0.35861418
3	0x3df99448	0.121864855
4	0xbeaa28a7	-0.3323414
5	0xb9cc7f70	-0.0003900486
6	0x3f63c981	0.88979346
7	0xbf0f07e8	-0.5587144
8	0x3ed2a6fa	0.41143018
9	0x3e2014d9	0.15632953
10	0xbe82b794	-0.25530684
11	0xbd278001	-0.04089356
12	0x3eef878a	0.46783096
13	0x3eb91752	0.36150604
14	0xbec2e818	-0.38067698
15	0xbe8efe47	-0.27928373
16	0xbdbd80b4	-0.09253064
17	0xbf577648	-0.8416486
18	0xbe8d78a4	-0.27631104
19	0xbf17eb44	-0.5934336
20	0x3e7c891e	0.24661681
21	0xbeeef7e1	-0.46673492
22	0x3f218fd5	0.63110095
23	0xbeaa8f77	-0.3331258
24	0xbe574772	-0.21023348
25	0x3ef44586	0.47709292
26	0xbecb2a88	-0.39680886
27	0x3e1464d4	0.14491588
28	0x3ef3e7b6	0.4763772
29	0x3d476f7c	0.048690304
30	0xbeebda48	-0.46064973
31	0xbc80f115	-0.015739957
32	0x3dc85e57	0.09783619
33	0x3e8dc8c8	0.27692246
34	0x3e881a7a	0.265827
35	0xbda0485b	-0.07826301
36	0xbf154633	-0.5831024
37	0x3e319d86	0.17345247
38	0x3f886657	1.0656232
39	0xbe1c0bbd	-0.15238853
40	0xbf49ce4b	-0.78830403
41	0xbd8c2555	-0.06843058
42	0x3e1fd20c	0.1560747
43	0x3eaa8f3a	0.33312398
44	0x3e825f18	0.25463176
45	0xbdb12917	-0.086504154
46	0xbe253b95	-0.1613601
47	0x3c1de23e	0.00963646
48	0xbe1f412a	-0.15552202
49	0x3ed50043	0.41601762
50	0x3e2f464b	0.17116658
51	0x3dcb5b1e	0.099294886
52	0x3d7213c5	0.059100885
53	0x3ece3e5e	0.40281957
54	0x3f35c257	0.70999664
55	0x3e7c2421	0.24623157
56	0xbe801b7f	-0.25020978
57	0xbf14ee27	-0.5817589
58	0xbe11f88d	-0.14254971
59	0xbf09ba10	-0.53799534
60	0xbe25ad3e	-0.16179368
61	0xbe6e99da	-0.23300877
62	0x3e4bedaf	0.19914888
63	0x3dcf7a37	0.101307325
64	0xbf4852d6	-0.782514
65	0x3e793b6a	0.24339071
66	0x3de4767c	0.111554116
67	0xbdaf442e	-0.08557926
68	0xbd86b085	-0.06576637
69	0x3ec25201	0.3795319
70	0x3c8d117b	0.01722025
71	0xbf20ba0a	-0.62783873
72	0xbeb60297	-0.3554885
73	0xbcd7fc6f	-0.026365487
74	0xbe492b6a	-0.19645467
75	0xbdff9c57	-0.12480991
76	0x3e83abbf	0.2571697
77	0x3f01d272	0.5071174
78	0x3e822809	0.2542117
79	0x3f0a8adf	0.5411815
80	0x3e71ea6c	0.23624581
81	0xbf3d5a66	-0.7396606
82	0x3ce78243	0.028260356
83	0xbe7d1c5e	-0.24717852
84	0x3e4dfa27	0.20114957
85	0x3d4757c6	0.04866769
86	0x3f14d16d	0.5813206
87	0xbf18212a	-0.59425604
88	0x3ee33e34	0.44383395
89	0x3eef3abd	0.467245
90	0xbece3803	-0.4027711
91	0xbe2811e5	-0.16413076
92	0xbf337434	-0.70099187
93	0xbeb4fc8d	-0.3534893
94	0x3ed87114	0.42273772
95	0xbceb46e7	-0.028720332
96	0x3e225d4f	0.15855907
97	0x3e81b0ef	0.25330302
98	0x3e6f6cc0	0.23381329
99	0x3e970dc7	0.295027
100	0x3e68d7c1	0.22738554
101	0x3efd00af	0.49414584
102	0x3d92f746	0.0717607
103	0xbea9e7a4	-0.3318454
104	0xbcd79d00	-0.02631998
105	0x3e07a11c	0.13245052
106	0x3ed002ac	0.40627038
107	0x3d75de20	0.060026288
108	0x3ec97793	0.3934904
109	0xbf40a21b	-0.75247353
110	0xbdd8e3dc	-0.10590336
111	0x3da3f58b	0.08005818
112	0xbe1250e6	-0.14288673
113	0xbdb96020	-0.090515375
114	0xbdd1367c	-0.1021547
115	0x3dfa0502	0.122079864
116	0xbc71acdf	-0.014750688
117	0x3f08b43d	0.5340002
118	0x3df2f162	0.11862446
119	0x3e8b0b70	0.27157164
120	0x3e657367	0.22407304
121	0xbe80d59c	-0.2516297
122	0xbf1a7b2a	-0.60344183
123	0xbf0c7b3b	-0.54875535
124	0x3e45aba5	0.19303758
125	0x3ddd865b	0.10816642
126	0x3ee6c3a7	0.45071146
127	0x3ee02f37	0.43786022

fc1.bias f4 [32]
0	0xbe7ef629	-0.2489859
1	0xbe6fda96	-0.23423228
2	0xbe90c02d	-0.28271618
3	0xbde520fa	-0.111879304
4	0x3ea27101	0.3172684
5	0xbf14c224	-0.58108735
6	0x3e6a31e3	0.22870593
7	0xbeaed95f	-0.34150216
8	0xbdbbb7cd	-0.091659166
9	0x3f108e57	0.56467193
10	0xbf0a77cb	-0.5408904
11	0x3dd9759c	0.10618135
12	0xbdd277aa	-0.1027673
13	0x3da8643e	0.08222245
14	0xbd6843b8	-0.056705207
15	0xbe8239d5	-0.25434747
16	0xbd853b8a	-0.06505497
17	0xbf320aa7	-0.69547504
18	0x3eff13b8	0.49819732
19	0x3e0ec4b5	0.13942225
20	0xbdab3493	-0.08359637
21	0x3d9bf3e8	0.07614881
22	0x3df2b178	0.11850256
23	0x3eb11893	0.3458906
24	0x3e3b1dd9	0.18273105
25	0xbf10eb10	-0.56608677
26	0xbed5f660	-0.41789532
27	0x3eabc76b	0.3355058
28	0x3f4adacb	0.792401
29	0x3ca457fc	0.020061485
30	0xbeb24a51	-0.34822324
31	0xbe82d849	-0.25555637

fc2.weight f4 [2, 32]
0	0xbd61bd88	-0.05511239
1	0x3c861739	0.016368495
2	0xbe196187	-0.1497861
3	0x3d4e0925	0.05030169
4	0xbd207d6f	-0.039182123
5	0xbd8984dc	-0.06714794
6	0x3d99c95f	0.075091116
7	0xbd8c0bc2	-0.0683818
8	0xbdbb58ca	-0.091477945
9	0x3cb1760c	0.021662734
10	0xbdd1e5c1	-0.102489
11	0x3e199465	0.14998014
12	0xbdcc8fd0	-0.099883676
13	0x3dc9f286	0.09860711
14	0xbd70daaa	-0.058802284
15	0xbe1fd162	-0.15607217
16	0x3ccba980	0.024861097
17	0xbda7307d	-0.08163545
18	0x3db8ec74	0.09029475
19	0xbdb58138	-0.08862537
20	0xbd68abe8	-0.056804568
21	0x3e220272	0.15821245
22	0x3ded3e43	0.11584141
23	0x3dd7b99b	0.10533448
24	0x3e6295ca	0.22127452
25	0xbc68ea02	-0.014215948
26	0x3e18f68d	0.14937802
27	0x3e1d123e	0.1533899
28	0x3e9cae6b	0.3060182
29	0x3ddd73fd	0.10813139
30	0x3dfef12f	0.12448346
31	0xbe10113a	-0.14069071
32	0x3e06250a	0.13100067
33	0x3ea4d9b3	0.3219734
34	0x3e10f7b5	0.14156993
35	0xbe534943	-0.20633416
36	0xbf0c98ff	-0.54920954
37	0x3edc990d	0.43085518
38	0x3e2c4b1e	0.1682553
39	0x3e4486fd	0.19192119
40	0x3c49873c	0.012300309
41	0xbef9d8fd	-0.4879836
42	0xbecd150e	-0.40055126
43	0xbbce3825	-0.006293314
44	0xbe1b8ef8	-0.15191257
45	0xbdd097e1	-0.101852186
46	0x3f09bb43	0.53801364
47	0xbb3b0bdf	-0.0028541011
48	0x3ec21475	0.37906232
49	0x3f2cb750	0.6746721
50	0x3d25718b	0.040391486
51	0x3e560ac2	0.20902541
52	0x3eb0169d	0.34392253
53	0x3e04d13b	0.1297044
54	0xbe2dc3e8	-0.16969264
55	0x3eb83232	0.35975796
56	0x3d842274	0.06451884
57	0x3e357e69	0.17724003
58	0x3dfb0470	0.12256706
59	0xbe69bed9	-0.22826709
60	0x3cbd0291	0.023072513
61	0x3e52c91a	0.20584527
62	0x3ebf940b	0.37417635
63	0x3e173236	0.14765248

fc2.bias f4 [2]
0	0x3edd62b8	0.4323938
1	0xbd9292b4	-0.07156888
