utils/n_ode_model_real.pth (torch, 3632 bytes, 4 tensors)

fc1.weight f4 [64, 3]
000000 a9 4c e9 be 72 8b fc 3d 3f 1c 57 3f 16 86 62 3e
       -0.455663 0.123312846 0.84027475 0.22121462
000010 9b 12 ff be bc c6 97 be f2 7d 30 bd a1 5d 9f 3e
       -0.49818882 -0.2964381 -0.04308886 0.3112612
000020 87 8f 0e 3d bf 11 d4 3e 1d 58 e9 be df 4e 6d 3e
       0.034804847 0.4141979 -0.45575038 0.23174618
000030 ff 44 1a 3e 26 57 71 be 37 36 03 3f 33 1a 8c be
       0.15065382 -0.235684 0.512546 -0.27363738
000040 11 2e 92 be cf 6c 11 3f bc ac c6 3c c8 60 0a bd
       -0.2855077 0.56806654 0.024252288 -0.033783704
000050 60 04 9f be c4 68 07 be 9d 9b 0c bf 04 24 33 bf
       -0.31058025 -0.13223559 -0.5492495 -0.6997683
000060 4b cb 5c be be bc da 3c 9e 2f 06 3f ab 80 48 3d
       -0.21561925 0.026701327 0.5241641 0.048950832
000070 15 21 11 3f bf f1 ce 3d 60 3a 96 3e d1 f7 b4 be
       0.56691104 0.10104703 0.29341412 -0.3534532
000080 56 af eb be ad 6a c1 3e bd 2a 9a 3e 80 e5 43 3f
       -0.46032208 0.377767 0.30110732 0.76522064
000090 93 1e 5f be 11 57 a8 3d 61 4b f0 bf 6e bc 4a be
       -0.21789007 0.082197316 -1.8773004 -0.19798443
0000a0 bc a9 34 bf 47 0c e7 be c2 95 2c be 9b 64 11 bc
       -0.70571494 -0.45126554 -0.16854003 -0.008874084
0000b0 3d 10 16 bd 9c d4 43 be 92 cd e2 3e a9 5d c0 bf
       -0.03663658 -0.19124073 0.44297463 -1.5028583
0000c0 4f 53 dd 3e f9 d4 e3 3d bd fd 90 3f 3a 51 bd bc
       0.43227622 0.11124606 1.1327435 -0.02311002
0000d0 8f 34 ce be 78 9c e7 bd c8 71 86 3e e8 1b a9 3e
       -0.40274474 -0.11309141 0.26258683 0.33029103
0000e0 80 5e 14 bf 30 83 8c 3e 68 de 10 3e 63 dc f3 bf
       -0.57956696 0.27443838 0.14147341 -1.9051632
0000f0 bd fd 38 be 9a 61 4d 3f 9a 42 e6 bc 13 79 a0 be
       -0.18065543 0.80227053 -0.02810793 -0.31342372
000100 23 cf 28 3f d6 b2 c1 3e 4c d0 51 3e d3 c5 42 be
       0.65941066 0.37831753 0.20489615 -0.19020776
000110 04 79 10 3f 99 61 24 be 33 bd a6 3d 63 b5 57 be
       0.56434655 -0.16052856 0.08141556 -0.21065287
000120 0b 00 92 3e b6 03 d8 3e 68 fe 7a be 97 56 ca be
       0.28515658 0.4219033 -0.24511111 -0.39519188
000130 97 9c ae be 3f 5b 9a 3d 0c 0f ff be ae 72 0d 3e
       -0.34103844 0.07536935 -0.49816167 0.13813278
000140 27 f2 e4 3e 6a d4 f7 be c9 2b 9b be 54 d8 c9 3f
       0.44715998 -0.48404247 -0.30306843 1.5769143
000150 f3 e0 54 bf 63 5d ce 3e 9d 17 0f be b9 08 42 be
       -0.83155745 0.40305623 -0.13973852 -0.1894864
000160 80 1f 04 be 41 bb b6 3f 0d 9b 94 be f1 08 c5 be
       -0.12902641 1.4275895 -0.29024544 -0.38483384
000170 fe 92 dc be 2b 63 47 3e 3d 99 e1 be bd 81 00 be
       -0.43080896 0.19471423 -0.44062224 -0.12549491
000180 c7 8e b6 3a dd e4 ef 3e 9c 41 f5 3e 1c 61 b5 3d
       0.0013928049 0.46854296 0.47901618 0.08856413
000190 15 ba f3 be b4 33 70 bf 03 f9 99 be 6f a2 55 3e
       -0.47602907 -0.9382889 -0.30072793 0.20862745
0001a0 3a 99 dc bb 7f c0 85 3e f6 f9 4f 3e 5a a9 17 3f
       -0.006732133 0.26123425 0.20310196 0.59242785
0001b0 f9 fe 00 bf b7 c2 27 3e 3a 70 57 bd 2f 94 9c 3e
       -0.5038906 0.16382872 -0.052597262 0.30581805
0001c0 d6 6b bd 3d c0 2b 73 bf f8 8e cc 3e 08 52 dd 3e
       0.09249084 -0.9498863 0.39952826 0.43226647
0001d0 2f 76 99 bf 5e 20 d8 bd 0f 99 3e bd 53 98 c1 3e
       -1.1989192 -0.105530486 -0.046532687 0.37811527
0001e0 39 4f 54 3e d8 dd 58 be bb 10 23 bf af 72 a9 3e
       0.20733346 -0.21178377 -0.63697404 0.3309531
0001f0 b3 a4 4c 3e bf 90 14 c0 95 cd 09 3e 7c 4d fd be
       0.19984703 -2.3213346 0.1345733 -0.49473178
000200 f9 b9 ba be bd cb a3 be ea 58 91 be b2 b9 9e 3f
       -0.3647001 -0.31991377 -0.2838815 1.240042
000210 08 87 45 be ff 29 cf be 59 bc 4f be d1 8d 29 bf
       -0.19289792 -0.40461728 -0.20286693 -0.6623202
000220 20 a7 00 3e 91 2b 7a 3e 11 e2 c3 3e d2 b7 e7 be
       0.12563753 0.24430682 0.38258412 -0.4525743
000230 70 ac 1c bf d7 fa 2e bb 4f b4 2f be 38 67 52 bd
       -0.6120062 -0.0026699805 -0.17158626 -0.05136797
000240 c8 53 b4 be a1 2f 92 be bc 9e 6a 3e 36 b6 80 3e
       -0.3522017 -0.28551963 0.22912115 0.25139016
000250 97 b4 95 be e8 7b 91 be 0b e4 c3 3e 56 e1 c1 be
       -0.29239342 -0.28414845 0.3825992 -0.3786723
000260 f4 63 b9 3d 06 92 10 bf c2 44 12 3e f9 4e 9b 3e
       0.09052268 -0.56472814 0.14284042 0.3033369
000270 cd 9e cc be 2d 29 b2 be 75 dc d4 3e 08 7c a4 3e
       -0.39964905 -0.3479704 0.41574445 0.32125878
000280 13 f2 a7 be 99 e6 13 be aa 5d a2 be 4f 2b 77 be
       -0.32801875 -0.14443435 -0.31712085 -0.24137615
000290 ed 45 60 3e ee ba ad 3e 89 ec a8 3e e7 d8 0c bf
       0.21901675 0.3393168 0.32992962 -0.55018467
0002a0 d3 22 f0 3d 9e ae b6 3e d1 bd db 3e 5c 9a 0d be
       0.11725392 0.35680097 0.42918256 -0.13828415
0002b0 05 9e 0b 3e 7d b5 12 3f 89 0d e7 3e ce f3 6d 3e
       0.13634498 0.5730818 0.45127514 0.23237535
0002c0 83 2e 82 bf 8c 50 18 3e d1 92 b3 be aa f0 4f bd
       -1.0170444 0.14874476 -0.3507295 -0.050766625
0002d0 b2 5e 83 3b e1 03 fa be 45 da 58 be c9 24 38 bf
       0.0040090913 -0.48831084 -0.21177013 -0.7193113
0002e0 a0 5a f0 3e 0e eb 89 3e 9d a0 33 be 4d 05 b6 3e
       0.4694414 0.26937145 -0.17541738 0.3555092
0002f0 22 a3 22 bf 73 59 a2 3d 92 48 fd be 72 57 06 be
       -0.6353017 0.07927217 -0.4946943 -0.13119295

fc1.bias f4 [64]
000000 55 21 d4 bd 27 54 89 3e 4d 61 ba 3e 2c 83 e4 3e
       -0.1035792 0.26822016 0.3640236 0.44631326
000010 d8 d2 46 3e 9a 7e 36 3c 0c 99 37 3e 5e 63 ec be
       0.19416368 0.011138583 0.17929476 -0.4616956
000020 4c 5d 07 3f e5 2f 2e bf b8 e1 ec bd 55 30 01 3f
       0.52876735 -0.6804183 -0.1156649 0.50464374
000030 80 a9 a6 3e ce b8 03 3f 5c 64 b8 3e 6f c7 bd 3e
       0.32551193 0.51453865 0.36014068 0.37066218
000040 c5 24 96 3e 40 85 89 be 2e 25 44 3f e5 97 92 be
       0.29324928 -0.26859474 0.7661923 -0.2863151
000050 8c fd 98 bd 38 4c b8 be de 05 13 3e 55 7e f2 be
       -0.07470235 -0.3599565 0.14357707 -0.4736201
000060 f5 e1 d7 3e cf e4 4c 3e a8 03 c0 be 7f 8d 1a bd
       0.4216458 0.20009159 -0.3750279 -0.037732597
000070 06 00 1f bf d0 15 90 be fe 80 02 3e ad 63 74 3e
       -0.6210941 -0.28141642 0.12744519 0.23866148
000080 51 25 09 bf 72 d4 c7 be aa 0f 6e be 92 c4 0d bf
       -0.53572565 -0.3902927 -0.23248163 -0.5537807
000090 01 0d a5 bd 4d 05 b5 bc f4 70 1f bd 2c 73 c6 3d
       -0.08059121 -0.022097254 -0.03892608 0.09689936
0000a0 65 15 2b bf e7 eb 9b be 25 fd 06 bf a7 99 dc 3d
       -0.6682952 -0.30453417 -0.5273002 0.10771494
0000b0 2d f4 2c bd 24 c8 0e be 34 5d 2d be b9 77 0b 3f
       -0.04222505 -0.13943535 -0.16930085 0.5447956
0000c0 a6 62 37 3f 81 1d 8a 3d b5 49 9a be 0f d2 b0 bd
       0.716349 0.06743909 -0.3013436 -0.086338155
0000d0 b9 8b 24 3e da f1 2a 3f aa 6d 7e be 72 ab 68 ba
       0.16068925 0.66775286 -0.24846521 -0.0008875645
0000e0 c7 45 c8 3e 25 5d 03 3f 60 61 f2 be c1 fc 8c be
       0.39115736 0.51314 -0.47339916 -0.27536586
0000f0 fe 5b 71 3e 73 7b 1a be 16 63 95 3e 30 86 de 3e
       0.23570248 -0.15086155 0.2917716 0.43461752

fc2.weight f4 [2, 64]
000000 8f 0c 99 bd 04 f9 af 3d be a1 06 3e 34 c6 ae 3d
       -0.074730985 0.08592418 0.13147637 0.08533898
000010 e7 a5 8c bb a9 f9 8c 3c dc 9f 58 bc 52 ce 9c 3b
       -0.004292238 0.017208891 -0.013221707 0.0047853375
000020 92 9b 06 3d a0 67 d2 bd ae c5 c4 bd bf f1 40 3d
       0.032863207 -0.10273671 -0.09608017 0.047105547
000030 7a 5a d3 3d 5b 4a 3f 3c cc b5 49 3d 7c 8b 27 3e
       0.103199914 0.011675443 0.04924564 0.16361803
000040 86 00 90 3c 4b 77 18 bd 57 a5 50 3e ac 3b 8b bd
       0.017578375 -0.03722314 0.20375572 -0.06798491
000050 61 21 9d bd 77 75 48 bd 41 bb 7d bd 94 74 88 3d
       -0.07672382 -0.04894015 -0.061946157 0.066628605
000060 51 5e b9 3d f9 c2 e2 3d 52 1a 4c 3e c3 de 88 bd
       0.090511926 0.11072344 0.19931915 -0.066831134
000070 84 ef bf bd b7 ee 48 bd 40 8b 4e bc 55 53 5e 3d
       -0.09371856 -0.04905578 -0.012606442 0.05427869
000080 15 06 6f 3c c5 76 bc bd 00 32 36 be 0b 0b c1 bd
       0.014588852 -0.09202341 -0.17792511 -0.094259344
000090 37 fb ff bd 02 bd bf bc 38 f6 68 3d dd f8 74 3c
       -0.12499087 -0.023405556 0.056875437 0.014951912
0000a0 0f a2 80 3d ac e8 03 bd a5 7a 6e bd 80 ee 13 bd
       0.0628091 -0.032204315 -0.05822243 -0.036116123
0000b0 12 95 77 3c 77 e9 94 bd b6 5a 07 3e 61 7b 50 3e
       0.015111225 -0.072710924 0.13218197 0.20359565
0000c0 84 c1 20 3e a2 d2 37 3b c1 f8 29 be 9a 80 86 3d
       0.1569882 0.002804913 -0.16598798 0.065674976
0000d0 08 f7 7f 3c 42 83 14 3e 1d d0 b1 bd e6 04 26 bd
       0.015622862 0.14503196 -0.086822726 -0.040532015
0000e0 53 70 cb b8 e3 f9 29 3e dd da 92 bd 1c c9 d3 bd
       -9.700716e-05 0.1659923 -0.07170651 -0.10341093
0000f0 46 5e dc 3d db 09 65 3e 29 ee cd 3d 68 e1 76 3b
       0.10760169 0.22367041 0.10055191 0.0037670974
000100 c2 df 5d 3d 6a bd c2 bd 12 8e a6 bc ab 5a da bd
       0.05416847 -0.09508784 -0.020331416 -0.10661825
000110 87 5f 65 bc 6f e5 a9 3d 5d cf 3b bc 15 16 ad bd
       -0.013999826 0.08295714 -0.0114630135 -0.084514774
000120 e7 37 a0 bd 4c c6 fb be 9f 77 0d 3e f1 d9 8b bd
       -0.078231625 -0.49174726 0.13815163 -0.068286784
000130 32 75 5a 3d a3 54 96 3e 18 ff b4 bd 61 70 43 3e
       0.053334422 0.29361448 -0.08837718 0.19085838
000140 a8 d6 91 bd 52 a9 be bd 4e 10 52 bd 80 78 6d 3e
       -0.071210206 -0.09309639 -0.05128508 0.23190498
000150 a5 49 ff 3e d5 fa 8e be 1e ed 86 bd f4 2e c3 3d
       0.49860874 -0.27925745 -0.06588195 0.0953044
000160 4c a6 95 3d e9 05 73 3d e4 eb 7c be 8a 9e e6 3d
       0.07307109 0.05933181 -0.2469936 0.11260708
000170 78 de 2e bf 3a 49 e5 3c 8f a8 00 be 01 e5 8d bd
       -0.6830821 0.027989019 -0.125643 -0.06928445
000180 2f 46 f4 be 74 93 91 3e fb 6d 97 be d3 40 25 be
       -0.47709796 0.2843281 -0.29576096 -0.1613801
000190 bc e3 b9 3d b3 bb fb 3c ed 74 df 3d 58 34 82 3d
       0.0907664 0.03072915 0.10910974 0.0635764
0001a0 92 2f 2b 3e 54 13 29 3e 1f f8 23 3e 45 51 e6 3d
       0.16717365 0.1651128 0.1601262 0.1124597
0001b0 8e a7 2b be f6 37 44 3e 7f e8 23 3e 91 d6 c1 bd
       -0.16763136 0.19161972 0.16006659 -0.094647534
0001c0 e1 a5 69 be 52 6e 41 bb e2 a6 8b 3d 6b e9 79 3e
       -0.22817184 -0.002951522 0.0681894 0.24405448
0001d0 33 31 d7 3d 16 4d 0e bc 9c 9d 23 bc f2 eb d3 3c
       0.10507431 -0.008685371 -0.0099863075 0.025869343
0001e0 e0 1a 13 bd aa 27 db bd cd aa ed 3d e0 7b 09 3e
       -0.035914302 -0.10700925 0.11604843 0.13426161
0001f0 a9 db 87 3e c8 26 cb 3e 16 59 d0 3d 81 9d 39 be
       0.26534775 0.39678025 0.10173242 -0.18126489

fc2.bias f4 [2]
000000 cc 94 ec 3c a7 ad 01 bd
       0.028879546 -0.03165975
