scripts/node_racecar_model.pth (torch, 21238 bytes, 6 tensors)

net.0.weight f4 [64, 3]
0.5916032 0.06472089 -0.1736664 -0.5486332 0.21983483 -0.23119523 -0.4202523 -0.47642088
0.41694888 0.09837876 -0.4074261 -0.04311512 0.015234127 0.45345926 -0.10294861 0.16351342
-0.5109199 0.1187038 -0.12011284 -0.29574078 0.029729506 0.2499577 0.16961777 0.35641605
-0.36902723 0.13259706 -0.5555767 0.37350547 0.54159355 -0.056816496 -0.35956725 0.5050726
-0.04746837 0.1362564 0.48009428 0.011322594 0.2801698 0.009149238 0.49936524 0.22974268
-0.68531674 -0.2802456 0.41588783 0.19415437 0.059743967 0.0725892 -0.13039587 0.34704697
-0.4009173 -0.3208212 -0.34020537 -0.012677933 0.069304675 -0.097175345 0.6128473 -0.18960503
0.32508916 -0.18370186 -0.54794854 -0.09168269 -0.6188822 0.49723682 0.34553117 -0.44610643
-0.36486784 0.52185106 0.08243259 -0.5816795 -0.39341024 0.16832475 0.49523023 0.13742256
-0.50979173 -0.3526586 0.09926952 -0.15699643 0.5923389 -0.02304177 -0.13950886 -0.41527867
-0.6081598 -0.21824078 -0.22215845 -0.6078557 -0.46229282 0.4340653 0.35524717 0.34605157
-0.46938318 -0.020019334 -0.08076172 -0.15686813 -0.63334626 -0.3672031 0.32145855 0.12097548
0.36553213 0.6206912 -0.15131582 -0.1420599 0.51590693 -0.46382865 -0.55595195 0.28773785
0.1400587 0.035634328 0.20452224 -0.5381647 0.042207215 0.2382307 0.4204975 0.1015145
-0.06129553 -0.44409013 0.3692342 0.49291235 0.4472179 -0.18951234 -0.13438095 0.21763767
-0.4567464 -0.0042233528 -0.058707107 0.35097426 -0.24400906 0.05418843 -0.35918924 0.13402322
0.0183454 0.39305055 0.12712385 0.52819 -0.33979058 -0.112053804 -0.0047028624 0.18866608
-0.05370184 -0.19637081 -0.13325845 0.1611649 0.39466977 0.13696109 -0.5935472 -0.0063715787
-0.5647726 0.46397895 -0.22648107 -0.019904772 -0.61452883 0.35725442 -0.37757424 -0.35572767
-0.07803281 0.14919932 -0.47723594 0.4399095 0.3749284 -0.33325058 -0.35686296 -0.018220099
-0.49178997 0.030793982 -0.4391296 0.030658742 0.5436002 -0.2167468 -0.042868435 0.40494788
0.50923645 0.054616645 -0.4615627 -0.42955574 -0.35966817 -0.16468668 0.19521615 0.12790403
0.49750984 -0.14207499 0.5196583 0.37484482 0.38491786 0.34685025 0.5197386 -0.26789525
-0.5446583 -0.4926679 0.3599254 -0.15422176 0.010320143 0.3371831 0.43664724 0.22456136
00000000: 4f73 173f 638c 843d 9bd5 31be 3a73 0cbf
00000010: 621c 613e 71be 6cbe 4f2b d7be 70ed f3be
00000020: 537a d53e ce7a c93d 279a d0be 7b99 30bd
00000030: 8f98 793c d02b e83e b9d6 d2bd 1070 273e
00000040: a6cb 02bf fa1a f33d b8fd f5bd 566b 97be
00000050: 4b8b f33c e9f4 7f3e 48b0 2d3e 2a7c b63e
00000060: 23f1 bcbe 86c7 073e 463a 0ebf 1c3c bf3e
00000070: e0a5 0a3f 6ab8 68bd 3319 b8be 704c 013f
00000080: 326e 42bd cc86 0b3e ebce f53e 6782 393c
00000090: 6b72 8f3e afe6 153c cdac ff3e aa41 6b3e
000000a0: eb70 2fbf 5a7c 8fbe 40ef d43e 67d0 463e
000000b0: 17b6 743d a6a9 943d 7f86 05be 24b0 b13e
000000c0: 0845 cdbe ad42 a4be 662f aebe 1bb7 4fbc
000000d0: 9cef 8d3d de03 c7bd 90e3 1c3f d227 42be
000000e0: 1672 a63e 571c 3cbe 5b46 0cbf 22c4 bbbd
000000f0: 106f 1ebf d395 fe3e 76e9 b03e 1068 e4be
00000100: f5cf babe 0898 053f 6bd2 a83d f3e8 14bf
00000110: 116d c9be 535d 2c3e d18e fd3e 80b8 0c3e
00000120: b681 02bf ab8f b4be d14d cb3d acc3 20be
00000130: 86a3 173f 18c2 bcbc 69db 0ebe 689f d4be
00000140: 5cb0 1bbf 837a 5fbe 817d 63be 6e9c 1bbf
00000150: a5b1 ecbe cf3d de3e f5e2 b53e ac2d b13e
00000160: fe52 f0be 96ff a3bc 6766 a5bd 0aa2 20be
00000170: fb22 22bf 0b02 bcbe 3796 a43e fec1 f73d
00000180: 0727 bb3e 9ee5 1e3f 89f2 1abe 2778 11be
00000190: 7a12 043f f37a edbe de52 0ebf 6052 933e
000001a0: 8c6b 0f3e 4df5 113d 476e 513e 29c5 09bf
000001b0: 79e1 2c3d c0f2 733e 734b d73e d6e6 cf3d
000001c0: 0611 7bbd c85f e3be 440c bd3e 025f fc3e
000001d0: bff9 e43e 860f 42be 299b 09be 69dc 5e3e
000001e0: aada e9be 0d64 8abb dd76 70bd e6b2 b33e
000001f0: 83dd 79be b0f4 5d3d a7e7 b7be 623d 093e
00000200: 1849 963c ec3d c93e c12c 023e 7637 073f
00000210: 08f9 adbe 777c e5bd 781a 9abb ae31 413e
00000220: 76f6 5bbd 6e15 49be e774 08be 6908 253e
00000230: 2812 ca3e 873f 0c3e b6f2 17bf adc8 d0bb
00000240: f094 10bf a68e ed3e a7ea 67be 550f a3bc
00000250: c351 1dbf 0dea b63e 6951 c1be f021 b6be
00000260: aacf 9fbd b5c7 183e 4558 f4be d13b e13e
00000270: 9ef6 bf3e d29f aabe beb6 b6be 5142 95bc
00000280: e5cb fbbe a943 fc3c 98d5 e0be 0b28 fb3c
00000290: 6229 0b3f e0f2 5dbe d096 2fbd 5455 cf3e
000002a0: 525d 023f b4b5 5f3d f251 ecbe bbee dbbe
000002b0: 6d26 b8be a0a3 28be bee6 473e 46f9 023e
000002c0: 9cb9 fe3e 1b7c 11be 5408 053f a9eb bf3e
000002d0: f413 c53e 5b96 b13e 970d 053f 9129 89be
000002e0: ba6e 0bbf f83e fcbe 2448 b83e 4fec 1dbe
000002f0: d115 293c 43a3 ac3e 3a90 df3e 6af3 653e

net.0.bias f4 [64]
0.46574658 0.18960004 0.43972826 -0.4617745 0.28611323 -0.60563195 -0.51248866 0.5148154
-0.2498841 -0.15549466 0.14896846 -0.49693924 0.046681333 0.3275499 0.24313694 -0.41394386
0.2644497 0.20838785 -0.48256156 -0.3417267 0.34137416 0.4620189 0.37586877 0.3937289
0.053788587 -0.4526675 -0.07805128 0.13653392 -0.094791465 -0.046992473 -0.34000507 -0.041169297
0.2739344 -0.26658612 -0.5616674 -0.114183 0.019975664 0.19661848 -0.52398616 0.5338217
0.12784094 -0.2702898 -0.16841443 -0.2029574 -0.18907276 -0.067458555 -0.13472885 -0.4769312
-0.523324 -0.38302726 0.23329362 -0.4174099 -0.20298764 -0.4374349 -0.38357833 0.09340591
0.25542367 -0.0057450566 0.011167925 -0.3143791 0.004927795 -0.009772215 0.516453 0.57287925
00000000: 5676 ee3e 8326 423e 1024 e13e b56d ecbe
00000010: 6f7d 923e b20a 1bbf 7532 03bf f1ca 033f
00000020: 9ee1 7fbe fe39 1fbe 308b 183e d26e febe
00000030: ed34 3f3d 9fb4 a73e e4f8 783e 73f0 d3be
00000040: f365 873e a063 553e 4f12 f7be cdf6 aebe
00000050: 98c8 ae3e be8d ec3e df71 c03e d696 c93e
00000060: 6c51 5c3d 09c4 e7be 59d9 9fbd 8ccf 0b3e
00000070: 0722 c2bd 2e7b 40bd 2515 aebe 23a1 28bd
00000080: 2141 8c3e fa7d 88be 6fc9 0fbf c7d8 e9bd
00000090: 01a4 a33c 5b56 493e f523 06bf 8aa8 083f
000000a0: bce8 023e 6d63 8abe d574 2cbe 11d4 4fbe
000000b0: 4a9c 41be b627 8abd 5cf6 09be 5430 f4be
000000c0: 90f8 05bf 261c c4be 86e4 6e3e c0b6 d5be
000000d0: fedb 4fbe 78f7 dfbe 6164 c4be 994b bf3d
000000e0: e4c6 823e 0741 bcbb acf9 363c 4cf6 a0be
000000f0: 5779 a13b a41b 20bc 4436 043f 37a8 123f

net.2.weight f4 [64, 64]
-0.045262974 0.04700788 -0.097970724 -0.077418886 -0.16609766 -0.004530088 0.15288705 -0.06083551
-0.05780662 -0.08307918 0.021193568 -0.023456596 0.09508353 0.07374546 -0.048068114 0.11665322
0.02869637 0.0247795 0.047356118 0.0709625 -0.12176152 -0.038475707 0.02126636 -0.14163397
-0.041902777 -0.19204237 0.060317222 0.051256623 -0.09243563 0.0032631431 -0.04520522 -0.039337844
-0.12246263 -0.14042656 -0.075168 -0.10520819 0.08102006 0.057251435 -0.07484176 -0.0064544086
-0.054880787 0.07076399 -0.086578794 0.059796777 0.011469831 0.009521601 0.083142646 -0.045899954
-0.16631016 0.051334783 0.09656585 0.047358 -0.06549111 0.07666138 0.051346745 -0.12431081
-0.015501638 0.1341646 0.09623305 -0.12960692 -0.12218338 0.05422687 -0.0131743 -0.025827995
0.025057644 0.010640782 -0.09607805 -0.11889139 -0.10573245 -0.14625683 -0.037164714 0.08080762
-0.10085726 -0.1462762 0.16076732 -0.16817372 0.024936337 -0.11295963 0.08795452 -0.09978097
0.037760183 0.0033630468 -0.044924926 -0.0054830727 0.0731003 0.06858424 0.05453123 -0.052682802
0.1597648 -0.10221578 0.015081874 -0.03930667 -0.0067732655 -0.052502055 0.11354336 0.078293845
-0.115390755 0.017988604 -5.6957015e-05 0.043646645 -0.0073330333 -0.08304615 -0.06081752 -0.08071978
-0.023816891 -0.13347156 -0.0049849227 0.10746841 0.16245593 -0.10433545 -0.039009172 0.057643324
0.07429788 0.04616702 0.089734234 -0.023883397 0.0353004 -0.021184957 -0.093643256 0.08946703
-0.13417591 -0.025641471 -0.06607688 -0.02788815 0.09621703 -0.045960277 -0.1171236 0.11833055
-0.13794725 0.096937515 -0.026804568 0.062477406 0.039950587 0.06966792 -0.015407449 0.060348574
0.1191204 -0.03173211 0.11505919 -0.043464646 0.0965689 0.043777574 0.07666441 -0.008273234
0.02291704 -0.07750469 -0.07963185 -0.11138653 0.038281366 -0.08554217 -0.08161841 -0.04016436
-0.114562385 0.107801184 0.022378702 0.037602354 -0.015232704 0.02205741 0.09022328 0.14333941
0.108436726 0.087978825 -0.062957466 -0.020528434 0.057870004 -0.020508742 0.07796091 -0.014860693
0.11594626 -0.07498444 0.11530304 0.06265342 0.15185618 -0.11542368 0.1243771 -0.061711352
0.08290413 -0.09321924 -0.04462186 -0.031236213 -0.11605257 -0.10004204 -0.10277383 0.043085262
0.09553908 -0.01783491 0.011034845 -0.018052772 -0.0026570167 -0.14512421 -0.008936678 -0.032508425
-0.006123233 0.110613085 -0.060884524 0.15740591 -0.09245194 0.064330064 -0.06522687 -0.011779054
0.06896896 -0.008013168 -0.13497582 -0.14649937 0.036003962 0.13146932 0.07824016 -0.07801923
0.03651805 0.047328394 -0.02526906 0.051181853 0.1138186 0.03450727 -0.079741 -0.13850024
-0.011967308 -0.05454796 0.09627887 0.044701044 0.004524014 0.07283044 0.041344643 -0.08795155
0.07225345 0.063489564 0.00072053634 -0.039120596 0.088505335 -0.11845099 0.028491758 0.114720985
-0.10948819 -0.078763574 -0.1614752 -0.017063329 -0.046706133 -0.0400818 -0.02649098 0.02210164
0.008070613 -0.017943017 -0.08778553 0.053834006 -0.10561191 0.16714157 -0.09439603 0.06693239
-0.08517771 0.048998833 0.023236852 -0.004307629 0.106513195 -0.0074290815 0.006704957 0.14501993
00000000: ab65 39bd 568b 403d e0a4 c8bd cb8d 9ebd
00000010: 8115 2abe 2271 94bb 6c8e 1c3e a82e 79bd
00000020: a2c6 6cbd 6b25 aabd 229e ad3c 0c28 c0bc
00000030: 27bb c23d dc07 973d 12e3 44bd e2e7 ee3d
00000040: a614 eb3c 61fe ca3c 7df8 413d ca54 913d
00000050: 1b5e f9bd b498 1dbd ca36 ae3c 7f08 11be
00000060: 3fa2 2bbd c1a6 44be 310f 773d 77f2 513d
00000070: e44e bdbd 75da 553b 1c29 39bd b820 21bd
00000080: b0cd fabd fbcb 0fbe aef1 99bd 6477 d7bd
00000090: d8ed a53d 7b80 6a3d a346 99bd 817f d3bb
000000a0: adca 60bd b6ec 903d 3950 b1bd 77ed 743d
000000b0: f5eb 3b3c 7d00 1c3c b146 aa3d 9701 3cbd
000000c0: 364d 2abe 6c44 523d 51c4 c53d 76fa 413d
000000d0: 3420 86bd a400 9d3d f750 523d aa96 febd
000000e0: 95fa 7dbc 7262 093e d515 c53d adb7 04be
000000f0: 483b fabd ff1c 5e3d 05d9 57bc 3b95 d3bc
00000100: b045 cd3c ad56 2e3c 92c4 c4bd 547d f3bd
00000110: 418a d8bd 5ac4 15be 073a 18bd 777e a53d
00000120: 408e cebd 6ec9 15be 30a0 243e bb35 2cbe
00000130: 4a47 cc3c 6157 e7bd 8021 b43d f759 ccbd
00000140: 6caa 1a3d 9066 5c3b 3303 38bd 59ab b3bb
00000150: 9cb5 953d e575 8c3d 245c 5f3d ecc9 57bd
00000160: 6299 233e 8256 d1bd f719 773c 0800 21bd
00000170: 45f2 ddbb 650c 57bd 6c89 e83d 8658 a03d
00000180: fd51 ecbd d65c 933c 21e5 6eb8 d3c6 323d
00000190: f149 f0bb 1a14 aabd cb1b 79bd 6950 a5bd
000001a0: a41b c3bc c5ac 08be 9058 a3bb 6618 dc3d
000001b0: d95a 263e d3ad d5bd 15c8 1fbd 681b 6c3d
000001c0: 7d29 983d a119 3d3d 95c6 b73d 1da7 c3bc
000001d0: 2797 103d 138c adbc 09c8 bfbd 7d3a b73d
000001e0: 6965 09be 100e d2bc 5153 87bd b175 e4bc
000001f0: 6f0d c53d d840 3cbd 7fde efbd 4a57 f23d
00000200: 0b42 0dbe 2d87 c63d 4195 dbbc 4fe8 7f3d
00000210: 3aa3 233d 0eae 8e3d 866f 7cbc 1130 773d
00000220: 65f5 f33d 87f9 01bd 27a4 eb3d fc07 32bd
00000230: eac5 c53d 1d50 333d 3b02 9d3d 758c 07bc
00000240: 84bc bb3c c7ba 9ebd 0616 a3bd 9f1e e4bd
00000250: eccc 1c3d bc30 afbd 8e27 a7bd 6283 24bd
00000260: af9f eabd dec6 dc3d 8a53 b73c ed04 1a3d
00000270: 9792 79bc beb1 b43c fcc6 b83d 91c7 123e
00000280: 1314 de3d 3e2e b43d d8ef 80bd 3f2b a8bc
00000290: 1909 6d3d f301 a8bc f8a9 9f3d 447a 73bc
000002a0: 3c75 ed3d 7191 99bd 0024 ec3d 7050 803d
000002b0: 3080 1b3e 4063 ecbd 6cb9 fe3d 0bc5 7cbd
000002c0: a4c9 a93d bbe9 bebd 69c5 36bd 16e3 ffbc
000002d0: f8ac edbd d7e2 ccbd 167b d2bd 2c7a 303d
000002e0: fea9 c33d 841a 92bc 7fcb 343c 68e3 93bc
000002f0: 5821 2ebb 719b 14be 256b 12bc 8e27 05bd
00000300: 67a5 c8bb 1d89 e23d 0d62 79bd 042f 213e
00000310: 7157 bdbd 7bbf 833d aa95 85bd effc 40bc
00000320: 993f 8d3d aa49 03bc 1a37 0abe ee03 16be
00000330: e478 133d e59f 063e 613c a03d 8cc8 9fbd
00000340: f393 153d 6bdb 413d 0f01 cfbc 10a4 513d
00000350: ba19 e93d 7f57 0d3d 404f a3bd 02d3 0dbe
00000360: 8712 44bc af6d 5fbd db2d c53d 7118 373d
00000370: 2e3e 943b 2028 953d 0059 293d f11f b4bd
00000380: 9ef9 933d d106 823d 60e2 3c3a eb3c 20bd
00000390: 4942 b53d 6f96 f2bd 8c67 e93c d6f2 ea3d
000003a0: 583b e0bd cc4e a1bd c159 25be 65c8 8bbc
000003b0: ee4e 3fbd d02c 24bd 9d03 d9bc 800e b53c
000003c0: 9b3a 043c 3cfd 92bc e6c8 b3bd 0c81 5c3d
000003d0: 0f4b d8bd 2927 2b3e b552 c1bd d913 893d
000003e0: a771 aebd 00b3 483d 365b be3c 0327 8dbb
000003f0: 9723 da3d a76f f3bb 42b5 db3b 1b80 143e

net.2.bias f4 [64]
-0.047451366 0.008005083 0.08533276 0.099033125 0.079573855 0.057543397 -0.0128950905 -0.0682554
-0.08320719 0.0438845 0.20347592 0.027996317 -0.038381875 0.01725336 0.044366483 0.10814318
0.057013053 0.11229637 -0.10478724 -0.0690466 0.08714497 0.0397439 -0.14997303 -0.07398099
0.079340905 -0.09829829 -0.079711065 -0.104086265 -0.067350455 0.044401128 0.0038915656 -0.041501213
0.14797172 -0.040450197 0.023714375 0.016226936 -0.13937275 -0.21411037 -0.00038078014 0.03397167
0.13476703 0.090336554 -0.12093112 -0.1618653 0.025604248 0.069333315 -0.09590535 0.116797134
-0.05280841 0.0961992 -0.031176658 -0.014467815 -0.0547711 0.04243153 0.042906974 -0.12792233
0.09971689 0.049163517 -0.03962586 -0.097369544 0.13260552 0.08055438 0.010705467 -0.085024945
00000000: 5d5c 42bd c027 033c f1c2 ae3d e1d1 ca3d
00000010: 9ef7 a23d a0b2 6b3d ee45 53bc 7dc9 8bbd
00000020: 8868 aabd 3cc0 333d fe5b 503e 8858 e53c
00000030: 5036 1dbd eb56 8d3c a1b9 353d 2c7a dd3d
00000040: 8586 693d a4fb e53d b19a d6bd 4e68 8dbd
00000050: 1079 b23d 80ca 223d 8892 19be 5883 97bd
00000060: 7c7d a23d 9d50 c9bd 8e3f a3bd 2e2b d5bd
00000070: 09ef 89bd f5dd 353d a309 7f3b 2dfd 29bd
00000080: e685 173e 1baf 25bd a644 c23c 5aee 843c
00000090: bbb7 0ebe c03f 5bbe 72a3 c7b9 e125 0b3d
000000a0: 5e00 0a3e 5f02 b93d bcaa f7bd 04c0 25be
000000b0: 00c0 d13c a0fe 8d3d 066a c4bd 5633 ef3d
000000c0: a24d 58bd 1604 c53d 3166 ffbc 6a0a 6dbc
000000d0: a957 60bd afcc 2d3d 39bf 2f3d 12fe 02be
000000e0: 5e38 cc3d af5f 493d ba4e 22bd af69 c7bd
000000f0: bec9 073e b2f9 a43d fc65 2f3c 8f21 aebd

net.4.weight f4 [3, 64]
0.10806208 0.12938827 -0.11065933 0.15007573 -0.14183697 -0.16872874 -0.1275543 -0.07886093
-0.14215279 0.07593483 0.0780266 0.16057043 0.020632042 0.09644017 -0.07626866 -0.11108989
-0.095679864 0.028784497 0.1396806 0.0875809 0.0063688583 0.1144418 0.108920656 -0.042676575
0.03917258 -0.08660983 -0.14742616 -0.11498573 0.082478575 -0.09124983 -0.09169508 -0.08863638
-0.015999293 0.1548631 -0.048148844 0.1147489 0.14822787 -0.03402053 -0.077574566 -0.13182546
-0.12861808 0.11776943 0.07962337 -0.13319534 0.12737723 -0.122693874 -0.16374703 0.06732622
-0.11024167 -0.06590815 -0.17277758 0.050103936 -0.17311619 0.09937708 -0.095901266 0.014848778
0.033741035 0.10532522 0.11710575 0.12479031 0.01970878 -0.12131981 -0.016974814 -0.016641304
-0.017499646 -0.15979849 -0.09748979 0.16974387 0.06347168 0.077866584 0.08340006 -0.025487933
0.1301782 0.05454942 -0.015001054 -0.14871277 -0.12872006 0.048782572 -0.12633444 0.0809138
-0.15672229 -0.13002807 0.16660994 0.07089054 0.04556388 0.034961097 0.1729794 0.043514535
0.1739113 0.09090768 0.021651538 0.1390912 -0.13455757 -0.14905834 0.14397447 -0.15765181
0.07882215 0.06869794 -0.11019031 -0.08551605 -0.1408969 0.015074702 0.0812208 -0.08686696
0.08992966 -0.14821889 0.07640596 -0.07268588 0.11141613 0.1068786 0.12711307 0.033191707
-0.09155549 -0.04731669 -0.04252781 -0.060073163 -0.16307457 -0.018731318 -0.11966337 -0.1372367
0.022173157 -0.183017 0.083882585 0.09691773 -0.10194583 -0.051708873 0.13543402 -0.15452679
0.044863913 -0.007643273 -0.065869845 -0.10909683 -0.06455935 0.058037974 -0.10014813 0.040482745
0.113272764 0.024156855 0.13843247 0.019548168 0.09003942 0.10317463 -0.120179094 -0.068962544
-0.06303888 0.06581464 -0.02142256 -0.1299439 0.018279284 0.046617895 -0.11463322 -0.055032775
-0.06160295 -0.009076569 0.019484688 0.010550025 -0.029790616 -0.1263823 -0.014858701 -0.043394253
0.035039 0.012681955 0.06026616 0.032827724 -0.09496398 -0.12043766 0.09605754 0.013226472
0.07872207 -0.05509401 0.070874095 -0.116889246 0.099367686 0.100219466 -0.06326426 -0.015173955
0.0727667 0.062111143 0.049503677 -0.037039828 0.08013165 -0.050874166 0.083433494 -0.00082369026
-0.013622467 0.08471667 0.05050293 -0.02255394 0.04776658 0.011979818 0.0952458 0.10048612
00000000: a74f dd3d 5c7e 043e 5ca1 e2bd 74ad 193e
00000010: b63d 11be 3ac7 2cbe 989d 02be d781 a1bd
00000020: 8090 11be b883 9b3d 69cc 9f3d 936c 243e
00000030: 8704 a93c 6d82 c53d be32 9cbd 1983 e3bd
00000040: cef3 c3bd 77cd eb3c 6e08 0f3e 9d5d b33d
00000050: dbb1 d03b 7660 ea3d cb11 df3d a2cd 2ebd
00000060: 6d73 203d 7f60 b1bd e2f6 16be a37d ebbd
00000070: 87ea a83d 31e1 babd a1ca bbbd fe86 b5bd
00000080: f310 83bc 6f94 1e3e b937 45bd 7901 eb3d
00000090: 0cc9 173e 1c59 0bbd 6adf 9ebd 41fd 06be
000000a0: 75b4 03be 1931 f13d 9411 a33d 5c64 08be
000000b0: 2d6f 023e ed46 fbbd 4dad 27be 54e2 893d
000000c0: 62c6 e1bd dafa 86bd 9bec 30be c939 4d3d
000000d0: 5f45 31be 3686 cb3d e267 c4bd 4a48 733c
000000e0: 0a34 0a3d c0b4 d73d 24d5 ef3d 1092 ff3d
000000f0: 4f74 a13c 8576 f8bd c40e 8bbc 5853 88bc
00000100: 6b5b 8fbc 37a2 23be baa8 c7bd 56d1 2d3e
00000110: 71fd 813d 8478 9f3d a7cd aa3d 12cc d0bc
00000120: 6f4d 053e 366f 5f3d fbc6 75bc 2948 18be
00000130: 31cf 03be 3cd0 473d d15d 01be 22b6 a53d
00000140: cf7b 20be 1426 05be cc9b 2a3e 0f2f 913d
00000150: 31a1 3a3d 5e33 0f3d 8321 313e 4c3c 323d
00000160: ce15 323e ce2d ba3d 915e b13c ec6d 0e3e
00000170: 76c9 09be c0a2 18be 0b6e 133e 7a6f 21be
00000180: 826d a13d 81b1 8c3d 75ab e1bd 0a23 afbd
00000190: 4747 10be e2fb 763c 1757 a63d 4ee7 b1bd
000001a0: 0b2d b83d b1c6 17be ba7a 9c3d 56dc 94bd
000001b0: 242e e43d 2be3 da3d ee29 023e 07f4 073d
000001c0: 7281 bbbd 25cf 41bd a431 2ebd 470f 76bd
000001d0: 05fd 26be 6c72 99bc 1212 f5bd c787 0cbe
000001e0: 7ba4 b53c cf68 3bbe a2ca ab3d ce7c c63d
000001f0: fac8 d0bd afcc 53bd 37af 0a3e 453c 1ebe
00000200: 39c3 373d 6c74 fabb c5e6 86bd 296e dfbd
00000210: b137 84bd 3ab9 6d3d 761a cdbd 3cd1 253d
00000220: 8dfb e73d 99e4 c53c 3ec1 0d3e 7b23 a03c
00000230: 9666 b83d 384d d33d 7520 f6bd 3c3c 8dbd
00000240: 871a 81bd d3c9 863d 5d7e afbc 0410 05be
00000250: 70be 953c 68f2 3e3d d2c4 eabd 0c6a 61bd
00000260: 6053 7cbd e4b5 14bc 5a9e 9f3c 03da 2c3c
00000270: 730b f4bc 5d6a 01be e971 73bc 2cbe 31bd
00000280: 0e85 0f3d f9c7 4f3c a6d9 763d 5d76 063d
00000290: 7a7c c2bd 05a8 f6bd d1b9 c43d d8b3 583c
000002a0: 0939 a13d 42aa 61bd 7026 913d a163 efbd
000002b0: 4981 cb3d dd3f cd3d b190 81bd 2e9c 78bc
000002c0: b506 953d 4168 7e3d 5ec4 4a3d 13b7 17bd
000002d0: 101c a43d 6e61 50bd 2edf aa3d ebec 57ba
000002e0: c530 5fbc ef7f ad3d 29dc 4e3d 0ac3 b8bc
000002f0: e4a6 433d 0047 443c 3b10 c33d abcb cd3d

net.4.bias f4 [3]
-0.03142648 -0.07157967 0.032858156
00000000: 0db9 00bd 5d98 92bd 4696 063d
